LeNet-5/save_model/best_model.pth (torch, 250091 bytes, 10 tensors)

c1.weight f4 [6, 1, 5, 5]
00000000: afc0 673f 8ee7 a93e 3ce8 a83c 48e8 8dbe
00000010: dfe8 ce3b 76a1 a5bd c0c7 f1be 043c 47bf
00000020: b398 33bf e91b 27bf 989a f4be cd96 5abf
00000030: 893a 97bf d631 51bf 7ba1 2dbf 6eb7 b73d
00000040: 792f 61bf a516 6cbf 2d7b 0dbf 9413 f0be
00000050: 354a d13d b185 32bf d643 d4be ee21 5abe
00000060: 3c5a 013f c605 e43e d5ab 113f 33c5 423f
00000070: af6e 283f ad10 203f 0fb4 443e f087 0bbd
00000080: 4265 4f3e 56ad fbbd bd61 9abd aa20 8ebe
00000090: d3df 97be edf9 36bf 1ff3 4bbf 1a25 c7be
000000a0: 36f9 f2be 4aa7 44bf 5952 6fbf 43f2 0ebf
000000b0: c7f7 ccbe e9bd 5d3d 4752 f9bd 8132 e8be
000000c0: 0d4b 90be 61a0 15be b60e 363f 193b 433f
000000d0: 8a37 673f 79e6 3e3f 3545 663f 2b2e 0c3f
000000e0: a987 24bd 90f6 a0be 006a 95be 0f19 d73d
000000f0: 9cdb a2be 5499 48bf 3e23 2abf c3a2 4dbf
00000100: 1629 2dbf 6662 2bbf f76b 38bf 7c2d 86bf
00000110: f8b3 38bf 6167 1bbf 5cb1 29be aa94 f2be
00000120: fd77 0ebf 11c7 65be 6763 5cbe e6b6 653f
00000130: 89a0 953f 947c 883f 41c2 4c3f 7bdb 7f3c
00000140: 2b72 4e3f ad30 953f 8b1e 8d3f 83b8 373f
00000150: 14fc 273e 7c5f 433f abbe 3f3f 7422 393f
00000160: 984c c43e cfcd 04bf 7391 813e 4251 bd3e
00000170: a4b6 983e 514d 98be ffa9 51bf ba0c 5ebe
00000180: a3d8 b4be e4a1 29bf 595e 9cbf 654f babf
00000190: 1f98 933f 9222 433f f3c0 3d3f 20ab 0a3f
000001a0: acc1 693f 6d32 ac3e 8e92 3c3b 1891 d3be
000001b0: c12f 0dbf 09bb bdbd 99c0 c6be 1ffd 2bbf
000001c0: 6702 73bf 01c8 91bf 07e2 3bbf 6065 05bf
000001d0: e5d1 84bf 37c4 84bf b888 7abf a0a4 06bf
000001e0: 2aaf 37bd 9e93 3cbf 74cc 57bf ac9f e6be
000001f0: 9312 dabd 57d0 a63e 1b52 7b3c d466 debd
00000200: 49f6 bebe 4a8c 9e3d bff7 3bbe b488 32bf
00000210: 7c29 f6be 266c 37bf c74b f3be eb45 9fbe
00000220: 6c50 3cbf b742 69bf ecea 31bf 14f8 a8be
00000230: 2c58 e8bd df27 e7be ed0c 50be 2141 2d3d
00000240: 4e24 8e3e aa90 073f 0084 693e 26a9 ac3e
00000250: 78f3 4d3f 442a 4b3f
0.90528387 0.33184475 0.02061855 -0.2771628 0.0063143815 -0.08087437 -0.4722271 -0.7782595
-0.70154876 -0.6527696 -0.47774196 -0.85386354 -1.1814739 -0.8171667 -0.67824525 0.08970533
-0.8796306 -0.9222205 -0.55266076 -0.46889937 0.10219232 -0.69735247 -0.41458005 -0.21302006
0.5052831 0.44535655 0.5690282 0.7608215 0.6579389 0.62525445 0.19209312 -0.034065187
0.2025347 -0.122889206 -0.07538173 -0.27759296 -0.29662952 -0.71475106 -0.7966785 -0.38895494
-0.47455758 -0.7681776 -0.9348503 -0.5583841 -0.4003279 0.05413619 -0.12173896 -0.4535103
-0.2818226 -0.14611961 0.711162 0.7626205 0.9031912 0.74570423 0.8994935 0.54757947
-0.040168438 -0.31438112 -0.29182434 0.105028264 -0.31808174 -0.7835896 -0.66460025 -0.8032648
-0.6764082 -0.6694702 -0.7203974 -1.0482631 -0.7214961 -0.6070462 -0.16571563 -0.47379047
-0.5565184 -0.22439219 -0.21522294 0.89732206 1.1689616 1.0663018 0.7998391 0.015616293
0.80642956 1.165548 1.1024946 0.7176592 0.16404754 0.7631757 0.7490031 0.72318196
0.38339686 -0.5187654 0.2530628 0.36976057 0.29826844 -0.29746488 -0.8190002 -0.21684542
-0.3532153 -0.6626265 -1.2216293 -1.4555479 1.1530799 0.76224625 0.7412254 0.54167366
0.91311145 0.33632222 0.0028773877 -0.41321635 -0.5515099 -0.0926419 -0.38818815 -0.6718311
-0.9492554 -1.1389161 -0.73391765 -0.5210781 -1.0376555 -1.037238 -0.97864866 -0.5259495
-0.044844784 -0.73662746 -0.84296346 -0.45043695 -0.10648074 0.32580826 0.0153394 -0.10859457
-0.37297276 0.07741602 -0.18356226 -0.6973984 -0.48078525 -0.71649396 -0.4751875 -0.3110803
-0.73560214 -0.91117424 -0.6949909 -0.3300177 -0.113449425 -0.45147607 -0.20317431 0.04229844
0.27762073 0.52955115 0.2280426 0.337228 0.8044963 0.7936137

c1.bias f4 [6]
00000000: 42ca d23f 9a6d 943f d48f 5c3f 32be bdbe
00000010: 7c37 a63f 277a b13f
1.6467974 1.1595948 0.86156964 -0.3705917 1.2985682 1.3865403

c3.weight f4 [16, 6, 5, 5]
00000000: b7c3 a13e 01e4 873e 4503 053e d6a6 dfbd
00000010: 6c1f 64be 8afc 913e 4e2c b53e 6cd6 603e
00000020: 5e6e 03be d386 25be ca2c 4c3e 5c64 ea3e
00000030: c3be 4e3e 7bae dabd f821 47be ea51 7f3e
00000040: 69c4 923e 7e2e dc3d e62e 99be bcf5 2abe
00000050: fe4b 9f3e 9e54 1d3e fe25 23bd eddf a0be
00000060: eaea 48be 6720 2b3e 54bd 3b3e ed3c 573d
00000070: 667c b5bd 6629 5cbe 5b6f c03c 50d7 3a3e
00000080: a11c 083e 137e 9abd 2354 6fbe b057 54bc
00000090: 8ee3 043e 2aae cd3c fda5 7cbe a366 37be
000000a0: aec6 883d 7b77 0b3e dea9 e9bd 7baf 31be
000000b0: 4fa0 8ebe 09ff 863d 7ca8 543d 4999 f7bd
000000c0: 56b5 4bbe 434d 49be e47f 303e d35c 7c3e
000000d0: 4ae2 463e b3f1 07be 1f5a 63be 5b1d 0d3e
000000e0: 2e3c 553e 801e ac3e be8c 12bc c319 49be
000000f0: 8b44 593d d45d c63e 8d30 163e 8d69 7abe
00000100: 47cb 93be 651c 8a3e 3d34 393e e2f5 303d
00000110: 9081 3abe d73a 42be 83cd 8b3e 71e3 043e
00000120: ded7 08be 156f 20be 2941 24be ba92 64be
00000130: edb9 24be 5115 0ebe 492e 34be 556c 2b3c
00000140: b56d b5be 7cb9 8cbe 052b e7be cb30 8ebe
00000150: e571 0ebc 2aec efbd 1158 6abe 3d9f 0bbf
00000160: bca8 9bbe c1b0 a83d 14e2 3dbd e99c b0be
00000170: 1638 ffbe ee11 14be e684 193e bc61 d1bd
00000180: a4ea 99be c9f0 c1be ad91 563d a33f 333e
00000190: fd7a ac3e 8ad3 9c3e dc0e 1d3e fa4e ed3c
000001a0: 3871 8ebe deb2 ed3d 8d0c e43e 72eb 983e
000001b0: a634 b43c 4b94 02be 603c f13d 65c2 f23e
000001c0: d5bb 893e 313a 73be 708c 79be 64b6 933e
000001d0: 36b6 983e ec75 ba3d f6b7 7cbe 53ec 3fbe
000001e0: 5bc1 433e 3b64 243e 278c 03be f83a 71be
000001f0: a6cc 5fbe 3003 763e 6fb0 4c3e b966 cc3b
00000200: 4c0f d0bd 0dcf 29be 05ea 483e ba68 4f3e
00000210: 3ec0 333e 8a35 0cbd 3eef 08be 3762 a23d
00000220: f25c 033e 9fa1 723e 2096 18be 5a9c 40be
00000230: 8bd7 7abd 9696 2c3e 89c3 283e d9a0 06be
00000240: e764 8bbe c9f0 803d 8c80 103e 89d9 91bd
00000250: 6532 91be 6c07 64be 1c3b 10bc 768a 293c
00000260: 27c0 433e e4b5 6a3e 14a9 3e3e 2562 283d
00000270: c0df 1c3e cf9a 003f b6a3 ef3e 7969 5b3e
00000280: c328 783e f662 e83e 2466 023f 1938 643e
00000290: ba15 e4bd f625 c03d c153 91bd 6701 d0bd
000002a0: 367a 11be d5ee 54be fc5e d3be f52c 0abf
000002b0: e694 09bf e958 65be 7749 08bd 3962 1dbe
000002c0: a964 88bd 1d2b 373e 105b 943d d303 733d
000002d0: 3289 823d 24ed 6a3e 3c49 963e 9341 0e3e
000002e0: 61f1 1dbe afe7 303e 4086 6c3e a03f 433e
000002f0: 0c93 23be f855 c8be df75 45be 6dcf bbbe
00000300: d4c7 f6be 6ff2 b4be 0681 e1bd 64f4 92be
00000310: 7b05 c4be ffe8 8ebe ae46 4ebc cd03 8c3c
00000320: 848d 65be dbc1 683d 85df ae3d 2fd5 783e
00000330: b73c 343e 214e 473c 1ca7 883e 30e3 bc3e
00000340: ca0c b43e 8332 cdbd 2a66 533e 58c3 ae3e
00000350: 5e1c 923e 3036 233c 86b2 ebbe 9798 1cbe
00000360: 9785 b4be 3dbe a1be 8da6 a5be e0b9 efbd
00000370: 65e2 96be b5ba 0cbf 312d bdbe c412 b6bd
00000380: 176a 3c3d 6453 3a3e 58a4 553e 2b6c 633e
00000390: 041b 043e c5ce 6c3e ca04 813e e34e 6e3e
000003a0: cb93 c43d cdde 95be 49c7 a1be eb38 e83c
000003b0: aefc 2bbd af52 d5be c807 28bf a8ce aebe
000003c0: 8f0c 59be 5f6e cbbe b71e ffbe 7145 83be
000003d0: 3226 623e 21e6 2cbd d7e0 843e 5db8 0d3f
000003e0: 674b a93e 171b 9e3e d1b8 2cbe 98da 933b
000003f0: d211 8c3e 6234 ae3e 85e8 873e bb3e fd3d
0.3159463 0.2654114 0.12989528 -0.10920493 -0.22277611 0.28512985 0.35385364 0.21956795
-0.1283507 -0.16164713 0.1993896 0.45779693 0.20189957 -0.10677811 -0.19446552 0.24933591
0.28665474 0.10751055 -0.29918593 -0.16695303 0.31112665 0.1536431 -0.039831154 -0.31420842
-0.19620863 0.1671158 0.18333942 0.052548338 -0.08861618 -0.21500167 0.023490598 0.18246198
0.13292171 -0.07543578 -0.2337194 -0.012960359 0.1297743 0.025107462 -0.24672695 -0.17910247
0.0667852 0.13619797 -0.11409353 -0.17352097 -0.2785668 0.06591613 0.05191849 -0.12089784
-0.19893393 -0.1965838 0.17236286 0.24644785 0.1942226 -0.13275795 -0.22202347 0.1378073
0.20823738 0.3361702 -0.008944688 -0.19638734 0.053043883 0.3874346 0.14666958 -0.24454327
-0.28866026 0.26974788 0.18086334 0.043203242 -0.18213487 -0.18967758 0.2730523 0.12977387
-0.13363597 -0.15667374 -0.16040482 -0.22321597 -0.1608655 -0.13875319 -0.17595781 0.01046284
-0.35435262 -0.27485263 -0.4515001 -0.277716 -0.008694147 -0.117149666 -0.22885157 -0.54539853
-0.30402172 0.08236838 -0.046358183 -0.34494713 -0.49847478 -0.14459965 0.14992103 -0.102237195
-0.3006183 -0.37879017 0.05238502 0.17504744 0.33687583 0.30630141 0.153377 0.028968323
-0.27820754 0.11606382 0.44540825 0.2986713 0.021997761 -0.12751882 0.11779094 0.47413936
0.26901117 -0.23752667 -0.24369979 0.2885009 0.29826516 0.09104523 -0.2467955 -0.18742494
0.19116728 0.1605386 -0.12846433 -0.23557651 -0.21855411 0.24024653 0.19989179 0.0062378314
-0.10159168 -0.1658289 0.19620521 0.20254794 0.17553803 -0.034230746 -0.13372514 0.07928889
0.12828425 0.23694466 -0.14901018 -0.18809643 -0.061240714 0.16854319 0.1648084 -0.13147296
-0.2722542 0.06295926 0.14111537 -0.0712157 -0.2835876 -0.22268456 -0.008803155 0.010347953
0.19116269 0.22920948 0.18619186 0.041109223 0.15319729 0.5023622 0.4680459 0.21426953
0.242343 0.45388 0.50937104 0.22287025 -0.111369565 0.093822405 -0.07096053 -0.101565175
-0.14206776 -0.20794232 -0.41283405 -0.5397485 -0.53742826 -0.22397198 -0.033273187 -0.153695
-0.066598244 0.1788754 0.07243931 0.05932982 0.06373824 0.22942024 0.29352748 0.13892202
-0.1542411 0.1727588 0.23098087 0.1906724 -0.15974063 -0.3912809 -0.19283246 -0.3668169
-0.48199332 -0.35341212 -0.110109374 -0.2870208 -0.3828543 -0.27912137 -0.012590094 0.017091656
-0.22417265 0.0568255 0.08538727 0.24300073 0.17601286 0.0121646235 0.26689994 0.3689208
0.35166007 -0.100194 0.20644441 0.3413341 0.28537267 0.00996165 -0.4603464 -0.15292583
-0.3525817 -0.31590453 -0.3235363 -0.11705375 -0.294696 -0.5497239 -0.3694854 -0.08890298
0.045999613 0.18195873 0.20863473 0.22209232 0.1290093 0.23125751 0.25198966 0.2327228
0.09598502 -0.29271546 -0.31597355 0.028347453 -0.04198902 -0.41664645 -0.65636873 -0.3414204
-0.21196197 -0.39732644 -0.4982812 -0.25638917 0.22084883 -0.042211656 0.2595279 0.5535944
0.3306534 0.30880043 -0.16867377 0.0045121424 0.27357346 0.3402434 0.26544586 0.123654805

c3.bias f4 [16]
00000000: 2e61 533d f4ad 5e3e 780c 133e 542a 88bc
00000010: 5b63 943d a459 35be 934d 063d 7264 34bd
00000020: 0e90 24be 4553 043d dc67 713d 2762 943c
00000030: fe2f 843c 1e89 823c fbd9 b23d 6e5b e2bd
0.05160635 0.21746045 0.14360225 -0.016621746 0.07245513 -0.17709976 0.032788824 -0.044041105
-0.16070578 0.032305975 0.05893694 0.018113209 0.016136166 0.015934523 0.08732983 -0.11052595

c5.weight f4 [120, 16, 5, 5]
00000000: af54 f6bc 167d 1e3b 5256 40bd 8a1a 9cbc
00000010: 15f1 86bd ef72 4a3c 1cb6 30bd 4787 bbbd
00000020: 916a 1bbd 5d6c 04be b98e bb3c e3d9 0b3d
00000030: 2fb1 aabd 05e0 8ebd 0556 27bd bbfa 013d
00000040: 0aaa 5a3c f656 89bc 4914 dabc f308 0d3d
00000050: 2b79 bebc 44c1 e83c 7b54 63bd 461a 44bc
00000060: 753f 0e3d 633d afbc 270a 133d d239 d1bb
00000070: 4373 a8bc b53c 8b3a b21d 97bd 046a 2b3c
00000080: cc1d 0e3d df34 32bd 4efa b8bd 5674 bcbc
00000090: 5c92 a9bb 4435 80bd a815 703d 22e2 c73d
000000a0: 8dbd 56bd 0f91 80bd 8fb4 acbd 2b96 953d
000000b0: 669c 933c 7625 0f3d 2ef7 d5bc c8f4 f8bb
000000c0: 2c00 15bd d804 22bd 5e91 8d3c b316 83bc
000000d0: a044 9f3d 2afe 7f3d 9b82 8b3d e2cd a0bc
000000e0: 09bc 17bb 63b9 c73b 6b63 86bc 3691 d3bc
000000f0: 3b9c f2bc faff b5bd bfb4 4d3c ec19 7d3d
00000100: a7db 4bbd cdab 47bd aaa2 3ebd d486 80bd
00000110: 0d0f 0abc 9c06 853d 28a1 833c 458b 15bb
00000120: e4d0 c23d e573 eabc 8754 5ebd a9ad 75bd
00000130: 0ae2 bb3b dba2 8ebd af24 03bd 00eb b2b9
00000140: b28d 59bd 464c babd bc53 03be df3f 8fbc
00000150: b69d c73d 7c65 b4bc 904e 00bb cf9e 4c3d
00000160: 3dbe 543d 1686 123c 8d4e bebc 3383 3bbd
00000170: 7b44 4a3d 0e35 b33c 2aa4 a8bc a571 b0bc
00000180: dc09 39bd cfab 863c 6e28 fb3c 2669 fbbc
00000190: b045 e33c 749d 383b 0493 42bd 4c76 0a3d
000001a0: 808c 5b3d 9c19 40bd 4666 8bbc 638a 543d
000001b0: a797 3abc 73e5 633d 9d47 18bd 81dd b1b9
000001c0: 90d3 46bd 1a17 443d 98fb ad3c 9404 7ebd
000001d0: 69fa 28bd 4f00 d2bc 093c 273d d47f b8bc
000001e0: 38c6 46bb 4060 b83a 5c18 613d 1ee2 413d
000001f0: c127 cc3b 80d5 95bc 9bc4 31bd 7802 c83b
00000200: 7654 9d3c 5c6d 6f3d b1a8 5b3d 5446 95bd
00000210: 4eea 3b3d 96e6 52bc ce93 8f3d f29e aabd
00000220: 0faa 883d 0259 d23d e001 bebc dd5b 46bd
00000230: 6143 ddbc ab31 77bc 5951 48bd 8e2e 67bd
00000240: d722 6fbd 85cc b9bc c701 e43c f13d 863c
00000250: 6534 00bd fdf3 15bc a8c6 e83c 9957 b2bc
00000260: 19fe 88bd 4952 203d 3788 ee3c f458 f5bc
00000270: 25c5 0e3d 2472 e8bd 0d32 393c 62a9 8d3d
00000280: 1503 1ebd 2d5b 583d 3290 4abd 4d1e c53c
00000290: 6167 5e3d d31f 98bd b1c2 c73c 3ac8 2f3d
000002a0: 587a efbc ff75 1abd 4ca3 d9b9 42c5 26bd
000002b0: 8c44 16bd 78cd 3bb9 9fdd 70bd d728 acbc
000002c0: 132a 28bd 47b7 afbc 74eb 1b3c bc59 c0bb
000002d0: 1904 233d e7e0 843b 8ef1 473d 95ac 6bbb
000002e0: c0f2 28bd 7c49 c63c 3cd1 743c 761b e13c
000002f0: 3c7a 823d 35a5 45bd 6758 56bc 9bbc 99bb
00000300: f921 523d 1e98 cf3c d0ee 4abd 5ff3 26bd
00000310: 4ff1 893d a028 823b 24a4 0a3c dbd5 7d3c
00000320: fde6 eabc 2266 9abd 04dc bfbd 6178 7abd
00000330: e7cf b43c 006a 6cbd 39f5 acbd ccf7 90bd
00000340: a901 d2ba 4746 eb3d 9dc3 7b3c e13f e4bc
00000350: a9ba da3d 9a71 783d 0b60 963d 1328 59bc
00000360: d703 143c ba02 72bc 0407 adbd ab0b 7abd
00000370: 2995 673d 0269 35bd 1bb2 973b 0519 b83c
00000380: 3569 95bc ac92 7abd 728f b1bd 8581 83bd
00000390: e78b 1ebd 19ad d13c d2c2 5cbd 929f 4bbd
000003a0: 3ea6 ccba 887a 03bd 4581 76bc 9df2 0b3d
000003b0: 977a c8bc 47dd 21bc eea5 25bb 95f3 ae3b
000003c0: fd00 a13b 7d09 683c 413f 0fbb fdfd b3bd
000003d0: 50e6 a5bd 7fd5 eebc 2eac bebd 35a9 74bd
000003e0: 31d7 b33c d355 f7bc 1c11 68bd ae83 49bd
000003f0: b7b5 d33b f747 cdbc b8a2 3fbd 3c2d 27bd
-0.030069677 0.0024183444 -0.04695732 -0.019055624 -0.065889515 0.012356504 -0.043142423 -0.091566615
-0.037943427 -0.12931962 0.022895204 0.03414334 -0.08334576 -0.06976322 -0.04085352 0.031733256
0.0133462045 -0.016765099 -0.026621 0.034432363 -0.023251137 0.028412469 -0.05550049 -0.011969155
0.034728486 -0.021391576 0.035898354 -0.0063850665 -0.020562774 0.001062295 -0.07378711 0.010462288
0.034696385 -0.043507453 -0.09032117 -0.023004692 -0.005174918 -0.062601596 0.058614403 0.09759928
-0.052426863 -0.06277668 -0.08432876 0.07304033 0.018018913 0.034947835 -0.026118841 -0.0075975396
-0.036377117 -0.0395554 0.01728123 -0.016002035 0.07776761 0.06249825 0.068120204 -0.019629423
-0.002315285 0.006095098 -0.016404828 -0.025826078 -0.029615512 -0.08886714 0.0125553 0.0617923
-0.049770024 -0.048747826 -0.046541847 -0.062757164 -0.00842644 0.06495401 0.016068056 -0.0022818607
0.09512499 -0.028619716 -0.05427983 -0.05998007 0.005733733 -0.06964656 -0.032017406 -0.00034125894
-0.053113647 -0.09096579 -0.12824911 -0.01748651 0.09746878 -0.022021048 -0.0019578077 0.04995614
0.051939238 0.008943101 -0.023230815 -0.04577942 0.049381714 0.021875884 -0.020586092 -0.021538565
-0.04517542 0.016439347 0.030658927 -0.030689787 0.02774319 0.0028170021 -0.047503486 0.033804223
0.053600788 -0.046899423 -0.017016541 0.05188979 -0.011388696 0.05563874 -0.03717767 -0.00033925104
-0.048541605 0.047873594 0.021238133 -0.062016085 -0.041254435 -0.025634913 0.04082874 -0.02252189
-0.003033055 0.0014066771 0.05495487 0.047334783 0.006230325 -0.018290281 -0.04340039 0.00610381
0.019205313 0.058453903 0.053627674 -0.07288805 0.045877747 -0.012872359 0.070106134 -0.08331098
0.06673061 0.10270883 -0.023194253 -0.04842745 -0.027009668 -0.015087525 -0.048905704 -0.056440882
-0.058382835 -0.02268053 0.027832879 0.016386958 -0.031299967 -0.00915241 0.02841504 -0.021770285
-0.0668909 0.039140973 0.029117687 -0.029949643 0.03485598 -0.113498956 0.011303437 0.06917073
-0.038577158 0.052821327 -0.04945392 0.0240623 0.05429781 -0.07427945 0.024384828 0.04291556
-0.029233143 -0.037710186 -0.0004151113 -0.040715463 -0.036686465 -0.00017910253 -0.058805104 -0.021015568
-0.04105575 -0.021449698 0.009516586 -0.005870072 0.03979883 0.0040551308 0.04881435 -0.0035961021
-0.04124713 0.024204962 0.0149424635 0.027478915 0.063709706 -0.048253257 -0.0130826 -0.004691673
0.05130193 0.02534109 -0.049544156 -0.04075944 0.06735479 0.003972128 0.008461986 0.015492882
-0.028674597 -0.075390115 -0.093681365 -0.06114996 0.022071792 -0.057718277 -0.0844521 -0.070785135
-0.0016022223 0.11488014 0.015366462 -0.027862491 0.10680134 0.060655214 0.073425375 -0.013254183
0.009034119 -0.014771158 -0.08448604 -0.061046284 0.056538735 -0.044289596 0.004629386 0.022472868
-0.018238643 -0.061175033 -0.08669938 -0.06421188 -0.03870764 0.025595235 -0.053896733 -0.049712725
-0.0015613509 -0.032099277 -0.015045469 0.03416692 -0.024472518 -0.009879417 -0.0025275904 0.005339096
0.004913448 0.014162418 -0.002185777 -0.08788679 -0.08100569 -0.029154537 -0.093101844 -0.05973168
0.021953197 -0.030192291 -0.05665694 -0.049197845 0.006460871 -0.02505873 -0.04678604 -0.040814623

c5.bias f4 [120]
00000000: fc7d 42bd efa6 e5bc 009e cebc ea00 ecbc
00000010: c48c 14bd 3b8a f8bc 4e03 90bc 2994 bbbc
00000020: 147a cbbc b33f 693c 23be 20bd 0691 dfbb
00000030: 1f30 173a 995e 7bbd ad80 a03c 6159 083d
00000040: 9a3e 24bd 7c67 1fbd ffa7 923c a1a2 81bc
00000050: 39e9 8a3b 9f32 55bd d519 3abb 9642 6bbd
00000060: 7a10 623d fa88 20bd 5970 44bd 6e4d ccb9
00000070: 917e 6cbb b896 1dbc 7a12 e43b 8f84 52bd
00000080: b9ca 96ba d582 d93c d2cf 64bc f7a8 a23c
00000090: 0fbb fcbc b9f7 113c 1060 313d 85b6 46bc
000000a0: ba39 31bd 14c3 0fbd 8866 c53c 1e68 3ebd
000000b0: 0244 993b 9126 39bc ef83 6d3c d1de 443c
000000c0: 760b c73b a819 183c 3e13 623d 3286 3e3d
000000d0: cacc 92bc 3099 073d 0e1f 0f3d 1925 923c
000000e0: 3bcb 10bc 4d7b 323d 0bca 033d 2bf0 d33c
000000f0: d37c 25bd 11fa 3fbd f413 2fbd 1599 273c
00000100: 90d0 2fbd c48b 133d b746 2d3d 6039 41bd
00000110: 8c0f 28bc c80b edbc f0cf 29bd 82fc 60bd
00000120: 02a7 48bd 666d 013d 9b3d c7bc 582a 523d
00000130: ddd5 f3bc 6adf 523b f4e3 2ebd b79a 92bc
00000140: f386 a33c f89a 4abc 31a4 f1bc ae4a cdbc
00000150: e9df ddba a3d8 373c 1a03 8e3c 0be4 87bc
00000160: 1da8 bf3c 74b2 e0bb 11bd a0bc 41be 143c
00000170: e080 663d a5e6 18bc 4d7d b8ba 70ba 0c3c
00000180: 5e94 1abd a1bc 01bd ca9c d0bc 2fc4 223d
00000190: d613 15bd 47e3 1b3d 34db 9bbc cafe 7bbd
000001a0: 9386 323d adcf bbbc 059e 413c 72d1 da39
000001b0: 779c 18bc 3a32 c5bb abc5 3abd 84bc 663d
000001c0: 86db 7f3c 60e0 9eb9 c38e 36bd a14a 253d
000001d0: bb89 4f3c e5ce 8dbd 5fe2 99bb 3b87 8e3d
-0.04748343 -0.028033702 -0.025221825 -0.02880903 -0.036267057 -0.03033935 -0.0175797 -0.022897797
-0.024838485 0.0142363785 -0.03924383 -0.006822708 0.00057673635 -0.061369512 0.019592607 0.033288363
-0.040098764 -0.03891705 0.017902372 -0.015824618 0.004239228 -0.05205023 -0.0028396745 -0.05743655
0.055191495 -0.03919313 -0.047958706 -0.00038967602 -0.0036086182 -0.009618454 0.0069602104 -0.05139595
-0.0011504508 0.026551643 -0.013965564 0.01985596 -0.030850915 0.008909159 0.043304503 -0.012128477
-0.043267943 -0.03509815 0.024096742 -0.046486013 0.0046772966 -0.011300699 0.014496787 0.012016014
0.0060743643 0.009283461 0.055194132 0.046514697 -0.017919917 0.033105075 0.034941725 0.017839955
-0.008837516 0.04357462 0.032175105 0.025871357 -0.040402245 -0.04686934 -0.04274364 0.010229369
-0.04292351 0.036021963 0.042303767 -0.047173858 -0.010257613 -0.028936282 -0.04145807 -0.05492831
-0.048987396 0.03159847 -0.024321368 0.051309913 -0.029765064 0.0032176622 -0.04269786 -0.01789604
0.01996181 -0.012366049 -0.029497238 -0.025060024 -0.0016927692 0.011221084 0.017335463 -0.016588232
0.023395592 -0.006857211 -0.019621404 0.009078563 0.05627525 -0.009332334 -0.0014075428 0.008589372
-0.03773915 -0.03167403 -0.025465388 0.039737877 -0.03639587 0.038058545 -0.019025423 -0.061522283
0.04358537 -0.022926176 0.01181746 0.0004173625 -0.009314648 -0.0060179504 -0.045598667 0.056332126
0.015616303 -0.0003030328 -0.044569742 0.040354375 0.012667115 -0.069242276 -0.004696175 0.06959387

f6.weight f4 [84, 120]
00000000: 249c 8ebd b59a a7bd d09c 8ebd beb5 483e
00000010: bfab 993e dc90 0b3d ad76 61bd 6fb9 743a
00000020: a127 29be 7aab de3d 9d26 fd3d b0e3 213e
00000030: a559 063c e13d 153e b9d1 7c3e fe19 c23e
00000040: 197b a5be 2ea5 88be c7b7 05bc 1ae2 5dbe
00000050: 1b1c 60bb 98e1 f0bd b7fc b33c eb92 0e3d
00000060: d1e2 ff3d ca30 6cbe a8f0 553e 8d56 9ebd
00000070: b8dd ef3d b460 4b3e 92cd c4bd ac84 18be
00000080: 1a2b da3d 67a7 25bd 1383 8a3d 2587 153e
00000090: 54a1 b23e 4008 4f3e 4f6e f0bd 26f6 c53d
000000a0: 66b9 2abd eeca 083e 6cd6 abbe 8f5b 87be
000000b0: 805f adbc a9df 363e 5beb 253e 8227 2d3e
000000c0: a6ff 9e3c 8845 4ebe 9f8a 133e 4485 423d
000000d0: 8d0b ef3b d5b0 debd 4626 13be 3e7f 833d
000000e0: 9491 013e 6bf4 81be 9c10 483d caad d3bc
000000f0: c86b 0b3c ffd3 49be c7f9 ea3b a38d b6bd
00000100: df70 623e de26 e4bb 32fb 6f3a 71da 99bd
00000110: 6c1c f6bc c166 3fbd e635 3fbd 61af 7cbe
00000120: 4325 1abd eb2d 19be 43d3 df3d ca1a 3cbe
00000130: 7dff e1bd b57f 6c3d 9a87 b7bd ec09 8fbd
00000140: 2ede 65be e97d b3bd 5fe5 53be 35f4 23be
00000150: 8573 0fbe 68f5 c53d 432f febd 45c7 303d
00000160: 97a9 a53d 2fa3 7e3d 1873 24be a095 a83b
00000170: 1a6a 343e 7719 803c 829d 3dbc 5399 25be
00000180: 1ec7 373d 7bc5 24be a91e 9c3d 13b5 9e3c
00000190: c389 443b 3741 81bd d52f 2d3e 4460 5fbe
000001a0: 39db 12bd 356d fcbc 0d72 debd e76a c8bd
000001b0: 9241 c4bc a4d1 b23e 570d c73d d16b e43c
000001c0: 9817 41bd efe6 fb3c b8fc e03d 8f59 b8bd
000001d0: cf5d 5abc 25e7 5f3d ca55 b73c 0802 4bbe
000001e0: b5f0 7dbd 63d2 0c3e 3352 26be efb4 8a3d
000001f0: fc3a 1abe 8dad 27be 3f4c 4c3d 3392 f13c
00000200: 9cd5 623d 3928 6f3d 8f82 85bc b995 573e
00000210: a652 b93d 9e2b 1b3d f97d 14be be54 873b
00000220: 42a4 c9bd 10d1 103d a6fb 1fbc a75c 833d
00000230: 5680 4cbd 8c2f 223e 306d 49bc dd8a 5ebe
00000240: ff98 0b3e a5ec 7fbd 1272 13be ce4c b73e
00000250: 70cc 72be 8ffd 853b 7b5a 013e 84ff 72be
00000260: 1bea 5d3d 631c 9e3d 5b10 a53d 8b48 15bb
00000270: 327b 3b3e 7779 303d 0e42 e73d 9816 91bb
00000280: ef0a 0abe 6167 8d3c b590 873e 81e5 ff3d
00000290: 8c5b 4bbe 7745 a4bd 97d0 203e f0fb 30be
000002a0: 6dfb ecbd 3202 89bd a0f0 673e 0d17 663e
000002b0: ec1b 023d d930 0d3e 2bd0 e63d ca1b 763d
000002c0: 851c 2fbe b7a0 3abe c084 e43d 4e42 6dbc
000002d0: 69f6 dabd 7315 a1bd d6fd 223e 1ac7 0cbd
000002e0: a9f5 a6bd ddc1 35bd d88b dd3d 046a 0a3e
000002f0: 529d 293e bba8 15be 3088 d7bb e71d 553c
00000300: 9318 13be eeb8 083e 5346 0b3e 737f d3bc
00000310: ed10 53bd 8fea c13d 464e ed3d 57c8 4c3e
00000320: 91be 5a3c a746 f9bc 5644 bd3c 869e b9bd
00000330: 277c 0fbe f925 49be 53cb 97bd e6b9 1fbe
00000340: c4f0 6dbe 028b 4ebd 6f47 ec3c 0400 623d
00000350: 8247 763e 061f 9a3e 9ae4 923d b6ec 59bd
00000360: 65cd 8ebd 2907 a6bc 197d 4dbe bcaa 8ebd
00000370: d6f2 883d 99ba 193e 559b 53be 44a4 f7bd
00000380: 1073 04bd 8346 b0bc 8ef4 4f3d 0827 06bd
00000390: bd58 163e 30c4 01bd b2fd 5ebe 3cc4 c53c
000003a0: 9d80 2c3e b28f f13d 74bb 33bd fa70 073e
000003b0: 961d 9cbc c708 873e 03cb 85be a92c b2bd
000003c0: ab59 c9bd 170a 43bd 6004 843e 683c bcbd
000003d0: 121e 013d a5a8 ee3d 6bc0 4d3c 4986 283d
000003e0: a89c ec3d 59ab 45bd 05e8 d9bd 8504 bcbc
000003f0: 09b3 8cbc ccaf dabd 0029 5a3d 6bd8 043c
-0.06963375 -0.08183805 -0.06963503 0.19600579 0.30013844 0.034073696 -0.05504482 0.0009335493
-0.16519023 0.1087255 0.123608805 0.15809512 0.008200084 0.14574386 0.24689378 0.37910455
-0.3232048 -0.26688522 -0.008161492 -0.21668282 -0.003419644 -0.117617786 0.02197109 0.03480808
0.12494434 -0.23065487 0.20892584 -0.07731352 0.11712211 0.19861108 -0.09609522 -0.1489436
0.10652752 -0.04044285 0.06763282 0.14602335 0.3488871 0.20217991 -0.1173979 0.0966609
-0.041680716 0.13358662 -0.33562028 -0.2643704 -0.021163702 0.17858757 0.16203062 0.16909602
0.019409012 -0.20143712 0.14408349 0.047490373 0.007295078 -0.10873572 -0.14370069 0.06420754
0.1265319 -0.2538179 0.048843965 -0.025839705 0.008509584 -0.19709776 0.007170889 -0.08913734
0.2211337 -0.006962641 0.00091545575 -0.075123675 -0.03004285 -0.046728853 -0.04668226 -0.24676277
-0.03763319 -0.14958923 0.10928967 -0.18369594 -0.11035059 0.05773898 -0.08961411 -0.06984314
-0.22448036 -0.0876425 -0.20692967 -0.16011126 -0.14008911 0.09665948 -0.12411358 0.04315879
0.08088987 0.062167343 -0.1605953 0.00514479 0.176186 0.015637143 -0.011573197 -0.1617177
0.044867627 -0.16090958 0.076230355 0.019373452 0.002998934 -0.06311267 0.16912778 -0.21814066
-0.0358536 -0.030813793 -0.10861597 -0.09786015 -0.023957048 0.34925568 0.09719341 0.027883442
-0.04714164 0.030749766 0.10985702 -0.09001457 -0.01332803 0.054663796 0.022379775 -0.19824994
-0.061997134 0.13752131 -0.16242294 0.067727916 -0.15061563 -0.16374798 0.0498774 0.029488659
0.055379495 0.05838797 -0.016297607 0.21053208 0.09048967 0.037883393 -0.1450118 0.004129975
-0.09845783 0.035355628 -0.0097645875 0.064141564 -0.04992708 0.1583845 -0.012294099 -0.2173266
0.13632582 -0.06248154 -0.14398983 0.35800785 -0.23710799 0.0040890644 0.12632172 -0.23730284
0.05417834 0.07720258 0.0805976 -0.0022778835 0.18308714 0.043084588 0.11291896 -0.004427742
-0.13480733 0.017261209 0.2647759 0.12494946 -0.19859141 -0.08021062 0.1570457 -0.17283607
-0.11571393 -0.06689872 0.22650385 0.2246973 0.03176491 0.13788165 0.11270174 0.060085095
-0.17100723 -0.1822537 0.111581326 -0.01448114 -0.1069153 -0.07865419 0.15917143 -0.034369566
-0.08152325 -0.044374336 0.10817689 0.13517004 0.16563919 -0.14615147 -0.006577514 0.013007618
-0.14364843 0.13351795 0.13601045 -0.025817608 -0.051529814 0.094685666 0.11587195 0.19998299
0.013351099 -0.030429197 0.023103874 -0.09063439 -0.14012204 -0.19643392 -0.07411828 -0.15598258
-0.23236376 -0.050425537 0.028842656 0.055175796 0.24050716 0.30101794 0.071725085 -0.05320426
-0.0697277 -0.020267086 -0.20067252 -0.06966159 0.06686942 0.15012588 -0.20664723 -0.12091878
-0.032336295 -0.021517998 0.050770335 -0.032752067 0.14682288 -0.03168124 -0.21776465 0.024141423
0.16845937 0.11794986 -0.04387994 0.13226691 -0.019057076 0.26373884 -0.26131448 -0.086999245
-0.09831556 -0.047617044 0.25784588 -0.09191209 0.031522818 0.1165326 0.012558083 0.04114369
0.11553317 -0.048259113 -0.10639957 -0.022951374 -0.017175214 -0.10678062 0.053261757 0.008108239

f6.bias f4 [84]
00000000: 5bc8 813d d87d 6a3d f746 95bc 5341 813a
00000010: 0c32 463d 7b86 81bd c5aa 21bd 4a49 083d
00000020: e431 113c 0a54 923d 57a8 6dbd 9e50 b13d
00000030: b8d6 ad3b 0e80 3c3d 37b3 cd3b 3de4 a83d
00000040: a6b5 903c c283 c43c 6ca9 9bbd c764 833d
00000050: 608b 363d 5078 abbd a70e 6d3d ebce 0dbd
00000060: 7941 99bd 10a9 063c 5231 303d 65a3 2f3d
00000070: 9f8d 383d 351d aebc f1ac 103c 63fe 98bb
00000080: cb90 253d 92bb 9c3d 1d99 ca3d dd19 253d
00000090: 2a78 5dbc 68de cd3b daa5 ca3d 106e 98bd
000000a0: 9064 143d 4716 5e3d 4b8c ea3c 4c93 db3c
000000b0: 8963 0a3d 347e 883c c06e 163d 54c1 3e3d
000000c0: e64a 813c 87ea 07bd 8f22 12bd cb70 bb3d
000000d0: d282 0a3d 1a99 56bd 43b0 1c3d a54a 873d
000000e0: 7004 1e3d 4c62 78bd 3fab 883d 9c74 71bc
000000f0: 5a60 e7bd 7292 f53c ab38 2f3d 8c53 b93c
00000100: 5691 983d fbf6 18bc f64c beba 1452 a8bd
00000110: faf3 d1bc d116 903b b78b 843d 79da 853b
00000120: 69bb d5bd 5856 b0bd 7d26 bc3c 996a 7ebc
00000130: 3eb3 b7bd 7f22 58bd a99b aa3c f5e4 973d
00000140: b810 613c 594f a13d 20c1 8bbc a9ca 1dbd
0.06337043 0.05724892 -0.018222315 0.0009861387 0.048387572 -0.06324478 -0.0394695 0.03327302
0.0088619925 0.071449354 -0.05802187 0.08657955 0.0053051375 0.04602056 0.0062774676 0.08246658
0.017664742 0.023988608 -0.07600674 0.06415706 0.044566512 -0.08372557 0.0578753 -0.03462116
-0.07483191 0.008219019 0.043015786 0.042880435 0.045056935 -0.021254161 0.008830295 -0.004668997
0.04042129 0.07652964 0.09892485 0.04030787 -0.013517419 0.0062826164 0.09894915 -0.07442868
0.036228716 0.054220464 0.02863135 0.026803635 0.03378633 0.01666174 0.036726713 0.04657109
0.015782785 -0.033182647 -0.03567749 0.09152373 0.033816166 -0.052392103 0.038254034 0.06606034
0.03857845 -0.06064062 0.066732876 -0.0147372745 -0.112976745 0.029977057 0.042778652 0.022622846
0.07449596 -0.0093362285 -0.0014518786 -0.0821878 -0.025629032 0.004397251 0.06471961 0.004084882
-0.10436136 -0.08610219 0.022967571 -0.015528345 -0.089697346 -0.052767273 0.020826178 0.07416717
0.013736896 0.078764625 -0.017059863 -0.03852335

output.weight f4 [10, 84]
00000000: 8b80 4b3e ccfa 36be 250d aaba b03e 603e
00000010: 1e4c 6abd 82eb 953e 648c 2ebf 868c d7bd
00000020: 38bf fe3c cc50 e2bd 022f cd3d e9e8 3dbe
00000030: f600 c4be 7a4f bebe 7e97 9b3e b536 763e
00000040: f742 bc3e e947 82be 588d 63bc dc8e 2d3e
00000050: f980 0bbf a39b 8c3e 7867 e43d 1a43 473b
00000060: 41fa 94be fa57 413e 91f1 af3e 1fc4 e53e
00000070: de91 f5bc 8964 9abd 2cd9 ca3e dc51 10bf
00000080: 442e 8f3e 1a85 123b f9f5 0fbf 4040 1cbf
00000090: 7b98 f73e 51f4 26bd 6045 9d3e 117b 1f3f
000000a0: e56b e23d f6ca 6ebd 2be3 31bf 0964 963e
000000b0: b506 47be 6ec6 f63e 039c 703e 563c ebbd
000000c0: 82f7 973e d563 f6bc 057e ac3d a56f fcbc
000000d0: 301a 9a3e 886a fdbe 71d5 873e 6c7f c4be
000000e0: b535 04bf 13ca 4abe b44f a0be c3dd a0be
000000f0: bdd5 82bc 83d9 61be e73f 5f3e 9460 5a3e
00000100: 01d3 c4be b676 e1be a89b c0be a222 973d
00000110: be8c 9dbd db1f 2f3e 12c8 263f c1d0 203f
00000120: 4147 7abe 06b4 e6be 25fe ca3e e15a 883e
00000130: 7ae5 bfbd c8a8 f43d 670f b1bd e411 2fbf
00000140: 1688 e53e 320c 03bf 478a 9dbe 1f5e c63e
00000150: b3a6 01bf e3b7 183f 1f9a 4bbe 2737 adbe
00000160: 4fe3 6d3e 20eb 293e 6e92 d13e cc93 413e
00000170: 796d e0be c874 80be c402 9c3e 3938 cf3e
00000180: 7bb8 c23e 2b6d 85bd 23dd 02bf cbb6 5a3d
00000190: 4a26 92bd f1ac 103f b0f8 cbbe 2b16 94be
000001a0: 38d0 0a3f c56f 15be 3cae c83c 1f68 693e
000001b0: 73cb 383e 28fc e9be 1f29 0ebe 0412 19bf
000001c0: 7a74 f53e fba1 59be 07d6 c43e 7662 343d
000001d0: cc8e 52be 70b2 21be ab9b 6e3e 014b 453e
000001e0: 6e2a b1be 026c 9f3c 5434 69be b850 d3be
000001f0: 890b 9f3e 8fd7 c43e 6d83 a93e 3104 ddbd
00000200: 47ac 9cbe 0173 7fbe 30e3 b8be e698 913e
00000210: b838 78be d9ae 5cbd 9f0c d73e a7be c43e
00000220: 7761 bdbe 61ff 2c3f 7fa0 4a3e 45fb 8e3e
00000230: 2e86 8bbe 3b07 30bd 4ac6 603e 828d 883c
00000240: bdf0 05be b71e e53e 8ada 67bd 147c 79bd
00000250: 2244 683d a8d0 363f a7b5 3abd bda8 9b3e
00000260: 086e edbe 37bc a5be 6321 99be f03c 35bf
00000270: cf30 e4be 3027 4a3e 4880 61be 5a8c 9cbe
00000280: 30b2 c5be d0e4 283e af13 be3e 72fb da3e
00000290: 810c d4bb 5ae9 0b3f 60f1 1a3f 06c4 bfbd
000002a0: 8900 10bf ba35 703c ec92 e93e 363e 103f
000002b0: a2df 703f f1a3 293f 24ce 883c 36d0 00bd
000002c0: 599b 93be 7e07 743e 92bc a93e b0aa 783d
000002d0: e931 86be 3a27 8fbe e7a8 49bf 2b00 a2be
000002e0: 4f1e 373e 9ab1 be3e 957a 083f b113 3f3d
000002f0: bc7b c2be 59ec 753f 33bd df3e 1bfe 7cbe
00000300: 244b 0dbe d07d c23e f889 4a3e b2e7 56be
00000310: 4d6b a3be de3c b03d 3bf2 aa3d 43c8 b6be
00000320: 8341 ab3e e6f6 24bd 7974 15bf 9585 13bf
00000330: 7951 c4be ca8e be3e 577e ab3e 81d4 5dbe
00000340: b5a9 743e 5a22 113e ffbf 803e ff38 cdbd
00000350: b967 3dbf 8cc5 08bf 9573 a6bd 6848 d33e
00000360: 945b 6c3e 71a4 babe ba6e db3e c5d4 15be
00000370: 8b7c 0e3f 6993 653d 1aa0 843e d2d6 1a3e
00000380: 95a8 b3be 75f3 323f a8af 393f 5bb9 573e
00000390: b350 8c3e 402a d13d 2d50 97be c272 343e
000003a0: ee53 e7be 4f30 dd3e db64 223e 3fb8 b33e
000003b0: 585e ac3e 00b7 8d3e 66a1 8e3e f3e8 bf3d
000003c0: fda5 13bf 5a19 80bb 6831 383f b0e5 97bd
000003d0: 0e5c 0cbd fb2d d6be e97c ba3e 8657 9ebe
000003e0: ac0c 06bf ef7a 7c3e 9dd3 9cbd ced0 cebe
000003f0: d7e2 83be 2f62 c0be 1913 b83e 3c81 0bbf
0.19873254 -0.17869109 -0.0012973888 0.21898913 -0.057201497 0.2928124 -0.6818297 -0.105248496
0.03109704 -0.11050567 0.10018732 -0.1854588 -0.38281983 -0.3717001 0.30389017 0.24044307
0.3676984 -0.25445488 -0.013888679 0.16949028 -0.5449367 0.2746249 0.111525476 0.0030404986
-0.2909718 0.18881217 0.34363988 0.4487619 -0.029976781 -0.07538707 0.39618814 -0.5637491
0.27964985 0.0022357167 -0.562347 -0.6103554 0.4835852 -0.040760342 0.3071699 0.6229716
0.110557355 -0.058299027 -0.69487256 0.29373196 -0.19436152 0.48198265 0.23497014 -0.114861175
0.2968102 -0.0300769 0.08422474 -0.030814955 0.30098104 -0.4949534 0.2653003 -0.38378465
-0.5164445 -0.19803648 -0.3131081 -0.3141919 -0.015971059 -0.2205563 0.2180172 0.21325904
-0.38442233 -0.44035882 -0.37618756 0.073796526 -0.0769286 0.17101996 0.65149033 0.62818533
-0.24441244 -0.45059222 0.39647022 0.26631835 -0.09369941 0.11946255 -0.08645516 -0.68386674
0.44830388 -0.51190484 -0.3076956 0.38743684 -0.5064499 0.5965559 -0.19883011 -0.3383114
0.23231243 0.165936 0.4093203 0.18904036 -0.4383352 -0.25089097 0.3047086 0.40472582
0.38031372 -0.06514963 -0.5111868 0.05339698 -0.07136209 0.5651389 -0.3983817 -0.28923163
0.54223967 -0.14593418 0.024497144 0.22793625 0.1804636 -0.45700192 -0.13882874 -0.59793115
0.47940427 -0.21253197 0.3844454 0.044039212 -0.20562285 -0.15790725 0.2330157 0.19266893
-0.34602684 0.019460682 -0.22773868 -0.4127252 0.31063488 0.38445708 0.33108082 -0.10791815
-0.30600187 -0.24946214 -0.3611083 0.28436965 -0.24240386 -0.053877685 0.42001817 0.38426706
-0.36988422 0.6757718 0.19787787 0.27926078 -0.27250808 -0.042975646 0.21950641 0.016669039
-0.13080116 0.44749996 -0.0566049 -0.060909346 0.0567056 0.71412134 -0.045583393 0.30402175
-0.4637301 -0.3237016 -0.29908285 -0.7079611 -0.44568488 0.19741511 -0.22021592 -0.3057583
-0.3861251 0.16493535 0.37124392 0.42769963 -0.006471217 0.5465294 0.6052456 -0.093635604
-0.56250817 0.014661247 0.45619905 0.56344926 0.94091237 0.6626578 0.016699858 -0.031448565
-0.28829458 0.23830983 0.3315168 0.060709655 -0.26209953 -0.27959615 -0.7877335 -0.31640753
0.17882656 0.37244874 0.53312045 0.04664964 -0.37985027 0.9606376 0.43699035 -0.24706309
-0.13798195 0.37986612 0.19779193 -0.20986822 -0.31917801 0.086053595 0.08346983 -0.35699663
0.3344842 -0.040274523 -0.5838085 -0.57625705 -0.3834341 0.37218314 0.33494827 -0.21663095
0.23892863 0.1417326 0.2514648 -0.10020637 -0.73986393 -0.5342643 -0.08127514 0.4126618
0.2308181 -0.36453584 0.42857915 -0.14631946 0.5565879 0.056048784 0.25903398 0.1512101
-0.35089555 0.69902736 0.72533655 0.21066801 0.2740532 0.10213137 -0.29553357 0.17621902
-0.4518122 0.4320092 0.15858786 0.35101506 0.3366573 0.2767868 0.27857512 0.093706034
-0.57675153 -0.003909272 0.7195039 -0.07416856 -0.034267478 -0.41831955 0.36423424 -0.3092615
-0.52363086 0.2465627 -0.076575495 -0.4039368 -0.25759003 -0.37574908 0.3595207 -0.5449407

output.bias f4 [10]
00000000: 310d 13be 717f d7bc 4d12 a33c 87e7 a1bb
00000010: 69ae a2bd 723c 163d b2a1 c2bd 3a2e 3b3d
00000020: 42be 933d a332 10bd
-0.14360501 -0.026305886 0.019906187 -0.0049409303 -0.07943422 0.03667874 -0.09503497 0.045698382
0.07214023 -0.03520454
